…
2020-04-21 05:48:02.594797: I tensorflow/core/platform/profile_utils/cpu_utils.cc:94] CPU Frequency: 2294730000 Hz
2020-04-21 05:48:02.595242: I tensorflow/compiler/xla/service/service.cc:168] XLA service 0x4738df0 initialized for platform Host (this does not guarantee that XLA will be used). Devices:
2020-04-21 05:48:02.595279: I tensorflow/compiler/xla/service/service.cc:176]   StreamExecutor device (0): Host, Default Version
Model: "sequential"
_________________________________________________________________
Layer (type)                 Output Shape              Param #   
=================================================================
mobilenetv2_1.00_224 (Model) (None, 7, 7, 1280)        2257984   
_________________________________________________________________
conv2d (Conv2D)              (None, 5, 5, 128)         1474688   
_________________________________________________________________
dropout (Dropout)            (None, 5, 5, 128)         0         
_________________________________________________________________
global_average_pooling2d (Gl (None, 128)               0         
_________________________________________________________________
flatten (Flatten)            (None, 128)               0         
_________________________________________________________________
dense (Dense)                (None, 128)               16512     
_________________________________________________________________
dense_1 (Dense)              (None, 6)                 774       
=================================================================
Total params: 3,749,958
Trainable params: 1,491,974
Non-trainable params: 2,257,984
_________________________________________________________________
Number of trainable variables = 6
WARNING:tensorflow:sample_weight modes were coerced from
  ...
    to  
  ['...']
WARNING:tensorflow:sample_weight modes were coerced from
  ...
…
